Mixup is activated!
Model = ConvNeXt(
  (downsample_layers): ModuleList(
    (0): Sequential(
      (0): Conv2d(3, 96, kernel_size=(4, 4), stride=(4, 4))
      (1): LayerNorm()
    )
    (1): Sequential(
      (0): LayerNorm()
      (1): Conv2d(96, 192, kernel_size=(2, 2), stride=(2, 2))
    )
    (2): Sequential(
      (0): LayerNorm()
      (1): Conv2d(192, 384, kernel_size=(2, 2), stride=(2, 2))
    )
    (3): Sequential(
      (0): LayerNorm()
      (1): Conv2d(384, 768, kernel_size=(2, 2), stride=(2, 2))
    )
  )
  (stages): ModuleList(
    (0): Sequential(
      (0): Block(
        (dwconv): Conv2d(96, 96, kernel_size=(7, 7), stride=(1, 1), padding=(3, 3), groups=96)
        (norm): LayerNorm()
        (pwconv1): Linear(in_features=96, out_features=384, bias=True)
        (act): GELU()
        (pwconv2): Linear(in_features=384, out_features=96, bias=True)
        (drop_path): Identity()
      )
      (1): Block(
        (dwconv): Conv2d(96, 96, kernel_size=(7, 7), stride=(1, 1), padding=(3, 3), groups=96)
        (norm): LayerNorm()
        (pwconv1): Linear(in_features=96, out_features=384, bias=True)
        (act): GELU()
        (pwconv2): Linear(in_features=384, out_features=96, bias=True)
        (drop_path): Identity()
      )
      (2): Block(
        (dwconv): Conv2d(96, 96, kernel_size=(7, 7), stride=(1, 1), padding=(3, 3), groups=96)
        (norm): LayerNorm()
        (pwconv1): Linear(in_features=96, out_features=384, bias=True)
        (act): GELU()
        (pwconv2): Linear(in_features=384, out_features=96, bias=True)
        (drop_path): Identity()
      )
    )
    (1): Sequential(
      (0): Block(
        (dwconv): Conv2d(192, 192, kernel_size=(7, 7), stride=(1, 1), padding=(3, 3), groups=192)
        (norm): LayerNorm()
        (pwconv1): Linear(in_features=192, out_features=768, bias=True)
        (act): GELU()
        (pwconv2): Linear(in_features=768, out_features=192, bias=True)
        (drop_path): Identity()
      )
      (1): Block(
        (dwconv): Conv2d(192, 192, kernel_size=(7, 7), stride=(1, 1), padding=(3, 3), groups=192)
        (norm): LayerNorm()
        (pwconv1): Linear(in_features=192, out_features=768, bias=True)
        (act): GELU()
        (pwconv2): Linear(in_features=768, out_features=192, bias=True)
        (drop_path): Identity()
      )
      (2): Block(
        (dwconv): Conv2d(192, 192, kernel_size=(7, 7), stride=(1, 1), padding=(3, 3), groups=192)
        (norm): LayerNorm()
        (pwconv1): Linear(in_features=192, out_features=768, bias=True)
        (act): GELU()
        (pwconv2): Linear(in_features=768, out_features=192, bias=True)
        (drop_path): Identity()
      )
    )
    (2): Sequential(
      (0): Block(
        (dwconv): Conv2d(384, 384, kernel_size=(7, 7), stride=(1, 1), padding=(3, 3), groups=384)
        (norm): LayerNorm()
        (pwconv1): Linear(in_features=384, out_features=1536, bias=True)
        (act): GELU()
        (pwconv2): Linear(in_features=1536, out_features=384, bias=True)
        (drop_path): Identity()
      )
      (1): Block(
        (dwconv): Conv2d(384, 384, kernel_size=(7, 7), stride=(1, 1), padding=(3, 3), groups=384)
        (norm): LayerNorm()
        (pwconv1): Linear(in_features=384, out_features=1536, bias=True)
        (act): GELU()
        (pwconv2): Linear(in_features=1536, out_features=384, bias=True)
        (drop_path): Identity()
      )
      (2): Block(
        (dwconv): Conv2d(384, 384, kernel_size=(7, 7), stride=(1, 1), padding=(3, 3), groups=384)
        (norm): LayerNorm()
        (pwconv1): Linear(in_features=384, out_features=1536, bias=True)
        (act): GELU()
        (pwconv2): Linear(in_features=1536, out_features=384, bias=True)
        (drop_path): Identity()
      )
      (3): Block(
        (dwconv): Conv2d(384, 384, kernel_size=(7, 7), stride=(1, 1), padding=(3, 3), groups=384)
        (norm): LayerNorm()
        (pwconv1): Linear(in_features=384, out_features=1536, bias=True)
        (act): GELU()
        (pwconv2): Linear(in_features=1536, out_features=384, bias=True)
        (drop_path): Identity()
      )
      (4): Block(
        (dwconv): Conv2d(384, 384, kernel_size=(7, 7), stride=(1, 1), padding=(3, 3), groups=384)
        (norm): LayerNorm()
        (pwconv1): Linear(in_features=384, out_features=1536, bias=True)
        (act): GELU()
        (pwconv2): Linear(in_features=1536, out_features=384, bias=True)
        (drop_path): Identity()
      )
      (5): Block(
        (dwconv): Conv2d(384, 384, kernel_size=(7, 7), stride=(1, 1), padding=(3, 3), groups=384)
        (norm): LayerNorm()
        (pwconv1): Linear(in_features=384, out_features=1536, bias=True)
        (act): GELU()
        (pwconv2): Linear(in_features=1536, out_features=384, bias=True)
        (drop_path): Identity()
      )
      (6): Block(
        (dwconv): Conv2d(384, 384, kernel_size=(7, 7), stride=(1, 1), padding=(3, 3), groups=384)
        (norm): LayerNorm()
        (pwconv1): Linear(in_features=384, out_features=1536, bias=True)
        (act): GELU()
        (pwconv2): Linear(in_features=1536, out_features=384, bias=True)
        (drop_path): Identity()
      )
      (7): Block(
        (dwconv): Conv2d(384, 384, kernel_size=(7, 7), stride=(1, 1), padding=(3, 3), groups=384)
        (norm): LayerNorm()
        (pwconv1): Linear(in_features=384, out_features=1536, bias=True)
        (act): GELU()
        (pwconv2): Linear(in_features=1536, out_features=384, bias=True)
        (drop_path): Identity()
      )
      (8): Block(
        (dwconv): Conv2d(384, 384, kernel_size=(7, 7), stride=(1, 1), padding=(3, 3), groups=384)
        (norm): LayerNorm()
        (pwconv1): Linear(in_features=384, out_features=1536, bias=True)
        (act): GELU()
        (pwconv2): Linear(in_features=1536, out_features=384, bias=True)
        (drop_path): Identity()
      )
    )
    (3): Sequential(
      (0): Block(
        (dwconv): Conv2d(768, 768, kernel_size=(7, 7), stride=(1, 1), padding=(3, 3), groups=768)
        (norm): LayerNorm()
        (pwconv1): Linear(in_features=768, out_features=3072, bias=True)
        (act): GELU()
        (pwconv2): Linear(in_features=3072, out_features=768, bias=True)
        (drop_path): Identity()
      )
      (1): Block(
        (dwconv): Conv2d(768, 768, kernel_size=(7, 7), stride=(1, 1), padding=(3, 3), groups=768)
        (norm): LayerNorm()
        (pwconv1): Linear(in_features=768, out_features=3072, bias=True)
        (act): GELU()
        (pwconv2): Linear(in_features=3072, out_features=768, bias=True)
        (drop_path): Identity()
      )
      (2): Block(
        (dwconv): Conv2d(768, 768, kernel_size=(7, 7), stride=(1, 1), padding=(3, 3), groups=768)
        (norm): LayerNorm()
        (pwconv1): Linear(in_features=768, out_features=3072, bias=True)
        (act): GELU()
        (pwconv2): Linear(in_features=3072, out_features=768, bias=True)
        (drop_path): Identity()
      )
    )
  )
  (norm): LayerNorm((768,), eps=1e-06, elementwise_affine=True)
  (head): Linear(in_features=768, out_features=100, bias=True)
)
number of params: 27897028
LR = 0.00400000
Batch size = 64
Update frequent = 1
Number of training examples = 50000
Number of training training per epoch = 781
Param groups = {
  "decay": {
    "weight_decay": 0.05,
    "params": [
      "downsample_layers.0.0.weight",
      "downsample_layers.1.1.weight",
      "downsample_layers.2.1.weight",
      "downsample_layers.3.1.weight",
…
